input: "qa"
input_shape {	
	dim: 1
	dim: 100
}

input: "qb"
input_shape {
	dim: 1
	dim: 100
}

input: "im"
input_shape {
	dim: 1
	dim: 3
	dim: 224
	dim: 224
}

input: "posdata"
input_shape {
	dim: 1
	dim: 2
	dim: 32
	dim: 32
}

# Appearance Subnet
layer {
	name: "conv1_1"
	type: "Convolution"
	bottom: "im"
	top: "conv1_1"
	param {
		lr_mult: 0
		decay_mult: 0
	} 
	param {
		lr_mult: 0
		decay_mult: 0
	}
	convolution_param {
		num_output: 64
		pad: 1
		kernel_size: 3
	}
}
layer {
	name: "relu1_1"
	type: "ReLU"
	bottom: "conv1_1"
	top: "conv1_1"
}
layer {
	name: "conv1_2"
	type: "Convolution"
	bottom: "conv1_1"
	top: "conv1_2"
	param {
		lr_mult: 0
		decay_mult: 0
	}
	param {
		lr_mult: 0
		decay_mult: 0
	}
	convolution_param {
		num_output: 64
		pad: 1
		kernel_size: 3
	}
}
layer {
	name: "relu1_2"
	type: "ReLU"
	bottom: "conv1_2"
	top: "conv1_2"
}
layer {
	name: "pool1"
	type: "Pooling"
	bottom: "conv1_2"
	top: "pool1"
	pooling_param {
		pool: MAX
		kernel_size: 2
		stride: 2
	}
}
layer {
	name: "conv2_1"
	type: "Convolution"
	bottom: "pool1"
	top: "conv2_1"
	param {
		lr_mult: 0
		decay_mult: 0
	}
	param {
		lr_mult: 0
		decay_mult: 0
	}
	convolution_param {
		num_output: 128
		pad: 1
		kernel_size: 3
	}
}
layer {
	name: "relu2_1"
	type: "ReLU"
	bottom: "conv2_1"
	top: "conv2_1"
}
layer {
	name: "conv2_2"
	type: "Convolution"
	bottom: "conv2_1"
	top: "conv2_2"
	param {
		lr_mult: 0
		decay_mult: 0
	}
	param {
		lr_mult: 0
		decay_mult: 0
	}
	convolution_param {
		num_output: 128
		pad: 1
		kernel_size: 3
	}
}
layer {
	name: "relu2_2"
	type: "ReLU"
	bottom: "conv2_2"
	top: "conv2_2"
}
layer {
	name: "pool2"	
	type: "Pooling"
	bottom: "conv2_2"
	top: "pool2"
	pooling_param {
		pool: MAX
		kernel_size: 2
		stride: 2
	}
}
layer {
	name: "conv3_1"
	type: "Convolution"
	bottom: "pool2"
	top: "conv3_1"
	param {
		lr_mult: 0
		decay_mult: 0
	}
	param {
		lr_mult: 0
		decay_mult: 0
	}
	convolution_param {
		num_output: 256
		pad: 1
		kernel_size: 3
	}
}
layer {
	name: "relu3_1"
	type: "ReLU"
	bottom: "conv3_1"
	top: "conv3_1"
}
layer {
	name: "conv3_2"
	type: "Convolution"
	bottom: "conv3_1"
	top: "conv3_2"
	param {
		lr_mult: 0
		decay_mult: 0
	}
	param {
		lr_mult: 2
		decay_mult: 0
	}
	convolution_param {
		num_output: 256
		pad: 1
		kernel_size: 3
	}
}
layer {
	name: "relu3_2"
	type: "ReLU"
	bottom: "conv3_2"
	top: "conv3_2"
}
layer {
	name: "conv3_3"
	type: "Convolution"
	bottom: "conv3_2"
	top: "conv3_3"
	param {
		lr_mult: 0
		decay_mult: 0
	}
	param {
		lr_mult: 0
		decay_mult: 0
	}
	convolution_param {
		num_output: 256
		pad: 1
		kernel_size: 3
	}
}
layer {
	name: "relu3_3"
	type: "ReLU"
	bottom: "conv3_3"
	top: "conv3_3"
}
layer {
	name: "pool3"
	type: "Pooling"
	bottom: "conv3_3"
	top: "pool3"
	pooling_param {
		pool: MAX
		kernel_size: 2
		stride: 2
	}
}
layer {
	name: "conv4_1"
	type: "Convolution"
	bottom: "pool3"
	top: "conv4_1"
	param {
		lr_mult: 0
		decay_mult: 0
	}
	param {
		lr_mult: 0
		decay_mult: 0
	}
	convolution_param {
		num_output: 512
		pad: 1
		kernel_size: 3
	}
}
layer {
	name: "relu4_1"
	type: "ReLU"
	bottom: "conv4_1"
	top: "conv4_1"
}
layer {
	name: "conv4_2"
	type: "Convolution"
	bottom: "conv4_1"
	top: "conv4_2"
	param {
		lr_mult: 0
		decay_mult: 0
	}
	param {
		lr_mult: 0
		decay_mult: 0
	}
	convolution_param {
		num_output: 512
		pad: 1
		kernel_size: 3
	}
}
layer {
	name: "relu4_2"
	type: "ReLU"
	bottom: "conv4_2"
	top: "conv4_2"
}
layer {
	name: "conv4_3"
	type: "Convolution"
	bottom: "conv4_2"
	top: "conv4_3"
	param {
		lr_mult: 0
		decay_mult: 0
	}
	param {
		lr_mult: 0
		decay_mult: 0
	}
	convolution_param {
		num_output: 512
		pad: 1
		kernel_size: 3
	}
}
layer {
	name: "relu4_3"
	type: "ReLU"
	bottom: "conv4_3"
	top: "conv4_3"
}
layer {
	name: "pool4"
	type: "Pooling"
	bottom: "conv4_3"
	top: "pool4"
	pooling_param {
		pool: MAX
		kernel_size: 2
		stride: 2
	}
}
layer {
	name: "conv5_1"
	type: "Convolution"
	bottom: "pool4"
	top: "conv5_1"
	param {
		lr_mult: 0
		decay_mult: 0
	}
	param {
		lr_mult: 0
		decay_mult: 0
	}
	convolution_param {
		num_output: 512
		pad: 1
		kernel_size: 3
	}
}
layer {
	name: "relu5_1"
	type: "ReLU"
	bottom: "conv5_1"
	top: "conv5_1"
}
layer {
	name: "conv5_2"
	type: "Convolution"
	bottom: "conv5_1"
	top: "conv5_2"
	param {
		lr_mult: 0
		decay_mult: 0
	}
	param {
		lr_mult: 0
		decay_mult: 0
	}
	convolution_param {
		num_output: 512
		pad: 1
		kernel_size: 3
	}
}
layer {
	name: "relu5_2"
	type: "ReLU"
	bottom: "conv5_2"
	top: "conv5_2"
}
layer {
	name: "conv5_3"
	type: "Convolution"
	bottom: "conv5_2"
	top: "conv5_3"
	param {
		lr_mult: 0
		decay_mult: 0
	}
	param {
		lr_mult: 0
		decay_mult: 0
	}
	convolution_param {
		num_output: 512
		pad: 1
		kernel_size: 3
	}
}
layer {
	name: "relu5_3"
	type: "ReLU"
	bottom: "conv5_3"
	top: "conv5_3"
}
layer {
	name: "pool5"
	type: "Pooling"
	bottom: "conv5_3"
	top: "pool5"
	pooling_param {
		pool: MAX
		kernel_size: 2
		stride: 2
	}
}
layer {
	name: "fc6"
	type: "InnerProduct"
	bottom: "pool5"
	top: "fc6"
	param {
		lr_mult: 0
		decay_mult: 0
	}
	param {
		lr_mult: 0
		decay_mult: 0
	}
	inner_product_param {
		num_output: 4096
	}
}
layer {
	name: "relu6"
	type: "ReLU"
	bottom: "fc6"
	top: "fc6"
}
layer {
	name: "fc7"
	type: "InnerProduct"
	bottom: "fc6"
	top: "fc7"
	param {
		lr_mult: 0
		decay_mult: 0
	}
	param {
		lr_mult: 0
		decay_mult: 0
	}
	inner_product_param {
		num_output: 4096
	}
}
layer {
	name: "relu7"
	type: "ReLU"
	bottom: "fc7"
	top: "fc7"
}
layer {
	name: "fc8"
	type: "InnerProduct"
	bottom: "fc7"
	top: "fc8"
	param {
		lr_mult: 0
		decay_mult: 0
	}
	param {
		lr_mult: 0
		decay_mult: 0
	}
	inner_product_param {
		num_output: 256
		weight_filler {
			type: "xavier"
		}
		bias_filler {
			type: "constant"
			value: 0
		}
	}
}
layer {
	name: "relu8"
	type: "ReLU"
	bottom: "fc8"
	top: "fc8"
}
# Spatial Cfg Subnet
layer {
	name: "conv1_p"
	type: "Convolution"
	bottom: "posdata"
	top: "conv1_p"
	param {
		lr_mult: 0
		decay_mult: 0
	}
	param {
		lr_mult: 0
		decay_mult: 0
	}
	convolution_param {
		num_output: 96
		kernel_size: 5
		pad: 2
		stride: 2
	}
}
layer {
	name: "relu1_p"
	type: "ReLU"
	bottom: "conv1_p"
	top: "conv1_p"
}
layer {
	name: "conv2_p"
	type: "Convolution"
	bottom: "conv1_p"
	top: "conv2_p"
	param {
		lr_mult: 0
		decay_mult: 0
	}
	param {
		lr_mult: 0
		decay_mult: 0
	}
	convolution_param {
		num_output: 128
		kernel_size: 5
		pad: 2
		stride: 2
	}
}
layer {
	name: "conv3_p"
	type: "Convolution"
	bottom: "conv2_p"
	top: "conv3_p"
	param {
		lr_mult: 0
		decay_mult: 0
	}
	param {
		lr_mult: 0
		decay_mult: 0
	}
	convolution_param {
		num_output: 64
		kernel_size: 8
	}
}
layer {
	name: "relu3_p"
	type: "ReLU"
	bottom: "conv3_p"
	top: "conv3_p"
}
# Combine features from subnets
layer {
	name: "concat1_c"
	type: "Python"
	bottom: "fc8"
	bottom: "conv3_p"
	top: "concat1_c"
	python_param {
		module: "customize_layers.concat_layer"
		layer: "Layer"
	}
}
layer {
	name: "fc2_c"
	type: "InnerProduct"
	bottom: "concat1_c"
	top: "fc2_c"
	param {
		lr_mult: 0
		decay_mult: 0
	}
	param {
		lr_mult: 0
		decay_mult: 0
	}
	inner_product_param {
		num_output: 128
	}
}
layer {
	name: "relu2_c"
	type: "ReLU"
	bottom: "fc2_c"
	top: "fc2_c"
}
layer {
	name: "PhiR_0"
	type: "InnerProduct"
	bottom: "fc2_c"
	top: "qr0"
	param {
		lr_mult: 0
		decay_mult: 0
	}
	param {
		lr_mult: 0
		decay_mult: 0
	}
	inner_product_param {
		num_output: 70
		weight_filler {
			type: "xavier"
		}
		bias_filler {
			type: "constant"
			value: 0
		}
	}
}
#DR-Net
layer {
	name: "PhiA_1"
	type: "InnerProduct"
	bottom: "qa"
	top: "qar1"
	param {
		name: "qar_w"
		lr_mult: 1
		decay_mult: 1
	}
	param {
		name: "qar_b"
		lr_mult: 2
		decay_mult: 0
	}
	inner_product_param {
		num_output: 70
		weight_filler {
			type: "xavier"
		}
		bias_filler {
			type: "constant"
			value: 0
		}
	}
}
layer {
	name: "PhiB_1"
	type: "InnerProduct"
	bottom: "qb"
	top: "qbr1"
	param {
		name: "qbr_w"
		lr_mult: 1
		decay_mult: 1
	}
	param {
		name: "qbr_b"
		lr_mult: 2
		decay_mult: 0
	}
	inner_product_param {
		num_output: 70
		weight_filler {
			type: "xavier"
		}
		bias_filler {
			type: "constant"
			value: 0
		}
	}
}
layer {
	name: "PhiR_1"
	type: "InnerProduct"
	bottom: "qr0"
	top: "q1r"
	param {
		name: "qr_w"
		lr_mult: 1
		decay_mult: 1
	}
	param {	
		name: "qr_b"
		lr_mult: 2
		decay_mult: 0
	}
	inner_product_param {
		num_output: 70
		weight_filler {
			type: "xavier"
		}
		bias_filler {
			type: "constant"
			value: 0
		}
	}
}
layer {
	name: "QSum_1"
	type: "Eltwise"
	bottom: "qar1"
	bottom: "qbr1"
	bottom: "q1r"
	top: "qr1"
	eltwise_param { operation: SUM }
}
layer {
	name: "PhiA_2"
	type: "InnerProduct"
	bottom: "qa"
	top: "qar2"
	param {
		name: "qar_w"
		lr_mult: 1
		decay_mult: 1
	}
	param {
		name: "qar_b"
		lr_mult: 2
		decay_mult: 0
	}
	inner_product_param {
		num_output: 70
	}
}
layer {
	name: "PhiB_2"
	type: "InnerProduct"
	bottom: "qb"
	top: "qbr2"
	param {
		name: "qbr_w"
		lr_mult: 1
		decay_mult: 1
	}
	param {
		name: "qbr_b"
		lr_mult: 2
		decay_mult: 0
	}
	inner_product_param {
		num_output: 70
	}
}
layer {
	name: "PhiR_2"
	type: "InnerProduct"
	bottom: "qr1"
	top: "q2r"
	param {
		name: "qr_w"
		lr_mult: 1
		decay_mult: 1
	}
	param {
		name: "qr_b"
		lr_mult: 2
		decay_mult: 0
	}
	inner_product_param {
		num_output: 70
	}
}
layer {
	name: "QSum_2"
	type: "Eltwise"
	bottom: "qar2"
	bottom: "qbr2"
	bottom: "q2r"
	top: "qr2"
	eltwise_param { operation: SUM }
}
layer {
	name: "PhiA_3"
	type: "InnerProduct"
	bottom: "qa"
	top: "qar3"
	param {
		name: "qar_w"
		lr_mult: 1
		decay_mult: 1
	}
	param {
		name: "qar_b"
		lr_mult: 2
		decay_mult: 0
	}
	inner_product_param {
		num_output: 70
	}
}
layer {
	name: "PhiB_3"
	type: "InnerProduct"
	bottom: "qb"
	top: "qbr3"
	param {
		name: "qbr_w"
		lr_mult: 1
		decay_mult: 1
	}
	param {
		name: "qbr_b"
		lr_mult: 2
		decay_mult: 0
	}
	inner_product_param {
		num_output: 70
	}
}
layer {
	name: "PhiR_3"
	type: "InnerProduct"
	bottom: "qr2"
	top: "q3r"
	param {
		name: "qr_w"
		lr_mult: 1
		decay_mult: 1
	}
	param {
		name: "qr_b"
		lr_mult: 2
		decay_mult: 0
	}
	inner_product_param {
		num_output: 70
	}
}
layer {
	name: "QSum_3"
	type: "Eltwise"
	bottom: "qar3"
	bottom: "qbr3"
	bottom: "q3r"
	top: "qr3"
	eltwise_param { operation: SUM }
}
layer {
	name: "PhiA_4"
	type: "InnerProduct"
	bottom: "qa"
	top: "qar4"
	param {
		name: "qar_w"
		lr_mult: 1
		decay_mult: 1
	}
	param {
		name: "qar_b"
		lr_mult: 2
		decay_mult: 0
	}
	inner_product_param {
		num_output: 70
	}
}
layer {
	name: "PhiB_4"
	type: "InnerProduct"
	bottom: "qb"
	top: "qbr4"
	param {
		name: "qbr_w"
		lr_mult: 1
		decay_mult: 1
	}
	param {
		name: "qbr_b"
		lr_mult: 2
		decay_mult: 0
	}
	inner_product_param {
		num_output: 70
	}
}
layer {
	name: "PhiR_4"
	type: "InnerProduct"
	bottom: "qr3"
	top: "q4r"
	param {
		name: "qr_w"
		lr_mult: 1
		decay_mult: 1
	}
	param {
		name: "qr_b"
		lr_mult: 2
		decay_mult: 0
	}
	inner_product_param {
		num_output: 70
	}
}
layer {
	name: "QSum_4"
	type: "Eltwise"
	bottom: "qar4"
	bottom: "qbr4"
	bottom: "q4r"
	top: "qr4"
	eltwise_param { operation: SUM }
}
layer {
	name: "PhiA_5"
	type: "InnerProduct"
	bottom: "qa"
	top: "qar5"
	param {
		name: "qar_w"
		lr_mult: 1
		decay_mult: 1
	}
	param {
		name: "qar_b"
		lr_mult: 2
		decay_mult: 0
	}
	inner_product_param {
		num_output: 70
	}
}
layer {
	name: "PhiB_5"
	type: "InnerProduct"
	bottom: "qb"
	top: "qbr5"
	param {
		name: "qbr_w"
		lr_mult: 1
		decay_mult: 1
	}
	param {
		name: "qbr_b"
		lr_mult: 2
		decay_mult: 0
	}
	inner_product_param {
		num_output: 70
	}
}
layer {
	name: "PhiR_5"
	type: "InnerProduct"
	bottom: "qr4"
	top: "q5r"
	param {
		name: "qr_w"
		lr_mult: 1
		decay_mult: 1
	}
	param {
		name: "qr_b"
		lr_mult: 2
		decay_mult: 0
	}
	inner_product_param {
		num_output: 70
	}
}
layer {
	name: "QSum_5"
	type: "Eltwise"
	bottom: "qar5"
	bottom: "qbr5"
	bottom: "q5r"
	top: "qr5"
	eltwise_param { operation: SUM }
}
layer {
	name: "PhiA_6"
	type: "InnerProduct"
	bottom: "qa"
	top: "qar6"
	param {
		name: "qar_w"
		lr_mult: 1
		decay_mult: 1
	}
	param {
		name: "qar_b"
		lr_mult: 2
		decay_mult: 0
	}
	inner_product_param {
		num_output: 70
	}
}
layer {
	name: "PhiB_6"
	type: "InnerProduct"
	bottom: "qb"
	top: "qbr6"
	param {
		name: "qbr_w"
		lr_mult: 1
		decay_mult: 1
	}
	param {
		name: "qbr_b"
		lr_mult: 2
		decay_mult: 0
	}
	inner_product_param {
		num_output: 70
	}
}
layer {
	name: "PhiR_6"
	type: "InnerProduct"
	bottom: "qr5"
	top: "q6r"
	param {
		name: "qr_w"
		lr_mult: 1
		decay_mult: 1
	}
	param {
		name: "qr_b"
		lr_mult: 2
		decay_mult: 0
	}
	inner_product_param {
		num_output: 70
	}
}
layer {
	name: "QSum_6"
	type: "Eltwise"
	bottom: "qar6"
	bottom: "qbr6"
	bottom: "q6r"
	top: "qr6"
	eltwise_param { operation: SUM }
}
layer {
	name: "PhiA_7"
	type: "InnerProduct"
	bottom: "qa"
	top: "qar7"
	param {
		name: "qar_w"
		lr_mult: 1
		decay_mult: 1
	}
	param {
		name: "qar_b"
		lr_mult: 2
		decay_mult: 0
	}
	inner_product_param {
		num_output: 70
	}
}
layer {
	name: "PhiB_7"
	type: "InnerProduct"
	bottom: "qb"
	top: "qbr7"
	param {
		name: "qbr_w"
		lr_mult: 1
		decay_mult: 1
	}
	param {
		name: "qbr_b"
		lr_mult: 2
		decay_mult: 0
	}
	inner_product_param {
		num_output: 70
	}
}
layer {
	name: "PhiR_7"
	type: "InnerProduct"
	bottom: "qr6"
	top: "q7r"
	param {
		name: "qr_w"
		lr_mult: 1
		decay_mult: 1
	}
	param {
		name: "qr_b"
		lr_mult: 2
		decay_mult: 0
	}
	inner_product_param {
		num_output: 70
	}
}
layer {
	name: "QSum_7"
	type: "Eltwise"
	bottom: "qar7"
	bottom: "qbr7"
	bottom: "q7r"
	top: "qr7"
	eltwise_param { operation: SUM }
}
layer {
	name: "PhiA_8"
	type: "InnerProduct"
	bottom: "qa"
	top: "qar8"
	param {
		name: "qar_w"
		lr_mult: 1
		decay_mult: 1
	}
	param {
		name: "qar_b"
		lr_mult: 2
		decay_mult: 0
	}
	inner_product_param {
		num_output: 70
	}
}
layer {
	name: "PhiB_8"
	type: "InnerProduct"
	bottom: "qb"
	top: "qbr8"
	param {
		name: "qbr_w"
		lr_mult: 1
		decay_mult: 1
	}
	param {
		name: "qbr_b"
		lr_mult: 2
		decay_mult: 0
	}
	inner_product_param {
		num_output: 70
	}
}
layer {
	name: "PhiR_8"
	type: "InnerProduct"
	bottom: "qr7"
	top: "q8r"
	param {
		name: "qr_w"
		lr_mult: 1
		decay_mult: 1
	}
	param {
		name: "qr_b"
		lr_mult: 2
		decay_mult: 0
	}
	inner_product_param {
		num_output: 70
	}
}
layer {
	name: "QSum_8"
	type: "Eltwise"
	bottom: "qar8"
	bottom: "qbr8"
	bottom: "q8r"
	top: "qr8"
	eltwise_param { operation: SUM }
}

layer {
	name: "softmax"
	type: "Softmax"
	bottom: "qr8"
	top: "pred"
}
